ECHO/code/voice/data.pth (torch, 46207 bytes, 6 tensors)

l1.weight f4 [32, 228]
00000000: 8383 413e ffd8 cd3d d00f 583e d588 9bbc
00000010: 453c 41be 5164 8a3e 550a fbbc 10f0 4dbe
00000020: 627f d2be b708 0cbe fa18 1f3e 3032 e3bd
00000030: 6b7d 7dbe fb16 573d 183a 573e 6f1e 20bd
00000040: 04f2 343e 1c0c c8be d63e 973e 8b67 a5be
00000050: 084a 36be a113 803e e100 7b3c 9928 e5bd
00000060: 8cb4 bc3e 22b1 acbe a24a 643e ff7d 3f3e
00000070: 690b 013f 74c1 11be 9566 e4be 13af 9b3e
00000080: 745a 27bd 7722 dbbe 34be 253e 4a0b a83e
00000090: 4207 de3c 94a0 a1bc 9a61 edbd 3e73 8fbe
000000a0: eaa1 d63e f3b8 93be a5f3 7fbe fb32 dabe
000000b0: ed09 65be ae45 3b3f 06f4 133e 17eb f13e
000000c0: 65c6 dcbe 05be 17be 9a7f d1bd f97b b53e
000000d0: cdb7 abbe f0b0 ee3e a6dc d93d d59f b7bd
000000e0: 176d 133f cd7b 3ebe cacd 6f3e 0b4e a0be
000000f0: 36f4 30be af06 c9be f0c9 bd3d b6eb 123e
00000100: 42c4 543e eaea ad3c fea0 c5bd 04d3 923d
00000110: 191a 7e3d f1ef ccbe 9b12 143d 16e2 933e
00000120: c52b 5ebe 3351 dbbe d21b b43e 8b5d 9fbd
00000130: 6a88 b23e 1bec bdbe a71a d8be eb47 7cbe
00000140: 2e16 61be 5449 85be f0d7 7b3e 6a16 24bd
00000150: 989a 843e 0cb0 923e ba7f 163e fb7d 7c3e
00000160: f344 343e 4d47 ac3e 74b8 793e 1db7 fabd
00000170: bd84 023e 463f ba3d ea2a b4be 5a34 613d
00000180: a1d2 583e eb61 3a3e b4a9 963e 3c55 c0bd
00000190: 3e59 f6bd 773f 2dbe d642 17be 3468 823e
000001a0: 7523 50be 3628 1f3f 594a 833e d7aa 57be
000001b0: 9c0f 28bc e87b d6be 2692 b5be 7d02 c8be
000001c0: def5 a5bd dfcc 96be db37 4a3e bec0 72bd
000001d0: 38af 01bf 9068 a7be 4e75 97be 36a5 30be
000001e0: 4da0 b93e 1389 74bd 840f 22be 8801 53bd
000001f0: 5863 7abe 3dfb fd3e 0310 873e 4eb5 46be
00000200: 1bcf 9f3e ec0e 93be 6dfa 093e 20ac 09bd
00000210: 0044 95bd 4df4 dabe 4e9d dabe 3cb4 a43e
00000220: 7219 b1bb 8439 8abe e943 743e 9a3b 983e
00000230: 474c 9f3e e8dc 873e 6980 f1be 00b0 183d
00000240: 89f7 1ebe a7e4 cc3e fbd0 6b3e 71f9 67bd
00000250: e696 e8bd e2a3 babe 510f 96be b0cd 553b
00000260: cb11 cfbe 1eb3 17be 1df0 703d 0fcd 883e
00000270: f688 26be 023e bdbd 19a8 d1be fcef afbe
00000280: f3c4 b6bd 3bee 8bbc 1a42 debe 1fc2 963c
00000290: 2d17 003e f28a 0abe 0e76 243e f5a5 a2bd
000002a0: a27b b3bd 81ad 9ebd 8a61 9fbe d6fe 3fbe
000002b0: ba19 e2be 8ad6 88bb d4f1 e03d 5cab 4dbe
000002c0: ba07 a7be 7b01 95be cd62 833e 2bbb a2bc
000002d0: 85e8 e7be 3c00 333d 2468 26be e427 32be
000002e0: 3f61 c03e 0280 5ebe 5f0f 4a3d 416c 5a3e
000002f0: 14c0 c83e 355a ecbb f5bf dbbe eac4 1ebe
00000300: 2b7c af3e eabc 07be 32d8 04bf 990d 0d3f
00000310: 14aa abbe d7e1 663e 364c e33d 0034 3cbe
00000320: 0881 babe 4074 7fbb 7a43 a0be 6854 de3d
00000330: 5877 69be b83b bdbe 2f2b 1ebf 92a9 013e
00000340: cfbd ceba 687d 133f e8ec 87bd 4c78 b5bd
00000350: 8869 44bd 0006 b1bb 6d2b 923e 05e7 01be
00000360: a8c6 76be b352 f7bd 2478 bd3e 2c37 14be
00000370: d23e 9a3e 5553 c33e 6561 0e3f 788b febd
00000380: 55a3 5cbe ce87 8f3e d3ad 9e3e e6fd 15be
00000390: d79b 183e bfe7 a0be b478 c03e 9b49 a5bd
000003a0: e245 cebd f2c8 243e a65a 933e cb66 ebbd
000003b0: 2b41 fdbc 3ccd 013e 4306 463e ed1a 6e3e
000003c0: 84eb 833e 71fb 83bd 6f43 9e3e 3317 aa3e
000003d0: 3e07 d0be 12a8 1dbf 8e82 02be 235b 113e
000003e0: 37cd 2a3e 2ab3 3fbd 006b 063e b10a 903e
000003f0: c2f1 a23e 9084 e2be 085a 21be 1225 a73e
0.18897824 0.10051154 0.21099782 -0.018986145 -0.18870647 0.2702966 -0.030644575 -0.20111108
-0.4111281 -0.136752 0.15536872 -0.11093557 -0.24754874 0.05251215 0.21018255 -0.039091524
0.17670447 -0.3907174 0.29540128 -0.3230556 -0.17801678 0.25014976 0.015320034 -0.11189384
0.36856496 -0.33728892 0.22294095 0.18700407 0.50408036 -0.14233953 -0.44609514 0.3040701
-0.040857747 -0.42799732 0.16185838 0.32821113 0.02710307 -0.01972989 -0.11590882 -0.2801761
0.41920406 -0.28852043 -0.24995287 -0.4261702 -0.22367068 0.731532 0.14448556 0.47249672
-0.43120113 -0.1481858 -0.10229416 0.35446146 -0.33538666 0.46619368 0.106377885 -0.089660324
0.5758833 -0.18601914 0.23418346 -0.31309542 -0.17280659 -0.39262912 0.09267032 0.14347729
0.20777991 0.02123018 -0.096498474 0.07169154 0.062036607 -0.4002681 0.036150556 0.28883427
-0.21696384 -0.42835388 0.35177475 -0.07781514 0.348697 -0.37094197 -0.42207834 -0.2463681
-0.21981117 -0.26032507 0.24594092 -0.04006044 0.25899196 0.28649938 0.14697161 0.24657433
0.17604427 0.33648148 0.2438677 -0.12241957 0.12745948 0.090941 -0.3518899 0.054981567
0.21174099 0.18201415 0.29426348 -0.09391257 -0.1202874 -0.16918741 -0.1477159 0.25470126
-0.20326026 0.6217073 0.2564266 -0.21061264 -0.010257628 -0.41891408 -0.35463065 -0.39064398
-0.08103536 -0.2945318 0.1974787 -0.059265845 -0.5065799 -0.32696962 -0.29581684 -0.17250523
0.36255112 -0.059701037 -0.15826231 -0.051515132 -0.24451959 0.49605742 0.26379403 -0.194051
0.31212696 -0.28722322 0.13474436 -0.033611417 -0.072883606 -0.42764512 -0.4269814 0.32168758
-0.0054046446 -0.26997006 0.2385403 0.29732972 0.31112882 0.26535726 -0.47168282 0.03727722
-0.15524115 0.40018198 0.23028938 -0.05663437 -0.113569066 -0.36453158 -0.2930856 0.003262382
-0.40443262 -0.14814422 0.05882274 0.26718947 -0.16263184 -0.09240343 -0.4094856 -0.3436278
-0.08924284 -0.01708137 -0.43409806 0.018403111 0.12508841 -0.13529566 0.1606066 -0.0794181
-0.087638155 -0.07747937 -0.31129104 -0.18749556 -0.44160253 -0.0041759657 0.10983625 -0.200849
-0.32623082 -0.29102692 0.25661317 -0.01986464 -0.45294586 0.043701395 -0.16250664 -0.1739803
0.37574193 -0.21728519 0.049331065 0.21330358 0.39209044 -0.007212902 -0.4291989 -0.15504804
0.3427442 -0.13255659 -0.5189239 0.55098873 -0.33528197 0.22547089 0.110985205 -0.18379211
-0.36426568 -0.0038979203 -0.3130148 0.10855943 -0.22799432 -0.36959624 -0.6178464 0.12662342
-0.001577312 0.5761323 -0.06636983 -0.088608354 -0.047952205 -0.0054023266 0.28548756 -0.12685783
-0.24099219 -0.120763205 0.37005723 -0.14474171 0.30126053 0.38149515 0.5561736 -0.12428945
-0.21546681 0.28033298 0.30991992 -0.14647636 0.14903198 -0.31426808 0.3759209 -0.0807068
-0.10071923 0.1609228 0.28780097 -0.114942156 -0.030914864 0.12675947 0.19338326 0.23252459
0.25765622 -0.06444443 0.30910823 0.33220825 -0.40630525 -0.6158458 -0.12745115 0.14194922
0.16679846 -0.046801724 0.13126755 0.28133157 0.31825072 -0.44241762 -0.15757 0.3264547

l1.bias f4 [32]
00000000: 7fcf d43e 2def c63e 8776 b43e 2c6f fc3e
00000010: cf73 e93e 0565 e83e f000 ff3e b295 ba3e
00000020: 6765 993e a406 e23e 915a a23e d0a5 f63e
00000030: 6eb3 ed3e 640c 013f 8c6e ed3e eb87 b13e
00000040: 2031 9d3e 7ac7 f93e 3a93 bc3e 3402 c53e
00000050: 435e 223f aa0a ee3e d2e0 e43e 7c22 203f
00000060: 2a8d 7e3e f30c a53e 1be2 9b3e 87f2 9d3e
00000070: f3fe d33e fcd0 193f 9b35 043f 45e1 6d3e
0.41564557 0.38854352 0.3524668 0.49303567 0.45596167 0.45389572 0.49805403 0.36442333
0.29960176 0.4414569 0.31709722 0.4817338 0.46425956 0.5040953 0.46373403 0.3467401
0.30701542 0.48785 0.36831075 0.38478243 0.6342508 0.4649251 0.44702774 0.6255262
0.24858537 0.32236442 0.30445942 0.30849096 0.41405448 0.6008451 0.51644295 0.23230465

l2.weight f4 [32, 32]
00000000: cf74 e33e be1d 9b3e 92e9 b93e b4e0 783e
00000010: 9852 303f a7ce e53e 892c 8ebd 5e1d d73e
00000020: 78f8 983d 3b95 453f 42fd 46bf 209f 5c3f
00000030: 577b 2f3f 6f06 5bbe 147b e33d 8f68 81be
00000040: b3c3 9c3e 0188 f43e e813 a3be c74e babd
00000050: 31ca bd3e fb6a 45be d7f8 363d e5b7 6bbe
00000060: 0433 51bd c2d3 8b3e 385a da3e 831e 943e
00000070: 3ce9 fcbe 6e59 27be 10f8 9abe 8784 33bf
00000080: 6ef9 d33d 17db 393f fce0 d3be 4ea1 7fbe
00000090: 0ac7 ec3e e921 aabd 58d1 c5be 500e 17bf
000000a0: df71 c6be 332b 33be 07fd c33d 3bca bf3e
000000b0: 4de2 973f ddc2 0c3f 032b d33e 0ad5 5ebe
000000c0: e576 b73e b6cd c33c d9b5 753f 5530 e4be
000000d0: 5a1e 58bd 038d d73e 5cbe 123f 9a98 ea3e
000000e0: f081 c43e e5c6 813e 0b09 463f 484d 8e3e
000000f0: 65b2 c63e 3cf9 41bf d8eb 5b3f b9ae 88be
00000100: 6a11 c7be 514b 25bf 81f3 71be 4cbf a5be
00000110: 1d35 be3e d788 e13e ef68 0f3e ee92 04bf
00000120: 4a49 f9be a91c 873e 8088 b7bd ec3c 013e
00000130: 2c4f 003e 175e 153e d7d3 463f bfab 563e
00000140: e3bc cb3e ffa9 243e a369 61be 95d3 c83e
00000150: ed14 e3bd f7d7 163f 6476 1e3f 970c 35bd
00000160: 9dd5 d7bd e283 093f b277 9c3e eaca 5b3f
00000170: 1ee0 33be 6874 11bf 40b5 6b3d 68ff 8c3e
00000180: 2ad3 0a3f 984e 89be 3d9c 0a3f 043a 193f
00000190: 4df8 423e 587e fa3d 1532 6c3d e23a 543e
000001a0: 3974 a2be ec05 be3e 5ad0 af3e 3eb1 56be
000001b0: c8ad 1abf 14aa 43be c7cf e03e 9e19 4c3e
000001c0: ad06 4fbe 7b8c 193e 0fb1 023f 1a60 d4be
000001d0: 66cd f5bc cfe4 123f e9d9 b33e 2e30 573f
000001e0: 3246 9bbe 7d5f c8be d231 1dbf 520f e13e
000001f0: e917 293e 8183 983e 4215 4bbe 6e6f d03e
00000200: bb84 0dbe b829 5fbd 5aa6 c4bd 0318 c6bd
00000210: 3dec ecbd d47d 44bc debe 7d3d b510 a8bd
00000220: c2c5 e33d 11bb 1dbe f363 b73d 6d9d acbd
00000230: 8ad9 98bd e8a8 ecbd 7c44 25be c810 8bbc
00000240: bcb2 883d 906b f73d 65f8 acbd 45b4 4fbc
00000250: 4474 293d 8045 c13c 2416 0bbe e057 963d
00000260: 5a10 5bbd a049 d7bd d33c 9cbd 248e 10bc
00000270: cfb1 86bc a6fc cbbd 6291 17be 84b6 0f3d
00000280: 12b1 8fbe 189a df3e 79a7 c13e 45d3 f5be
00000290: cce9 b33e 18bf 47bd 2541 923f eb50 ad3e
000002a0: 1324 393f 14b1 2b3f b869 3b3c 2773 043f
000002b0: 2638 f73e cf1c 65bd 6262 89be 50a2 9a3e
000002c0: c4b5 513e ac27 eb3d d6e9 8fbe a7e4 1abf
000002d0: 1abe 3dbf 3922 3a3f bdb1 0cbb 4212 adbe
000002e0: be57 1a3f 3808 d6bc 81b3 c63e c7ce e63e
000002f0: 4b94 5bbf 1837 b13e 4feb bd3d 6419 ed3e
00000300: cd68 c8bd b947 3ebe 20da 2c3d 0d8b 983d
00000310: 6807 93be ce11 6b3e 6b38 a3be c38c 2a3f
00000320: 9bda f13e 9fc6 b53d 3366 d03e 2594 d9be
00000330: f8ac 1e3f 372e 11bf 2eb9 a6be 1ad7 5c3f
00000340: 313c 413f 237f d53b b135 00bf ecd7 e73e
00000350: 6f3a 363f eb09 cfbd 936e 223f 4d1a 603f
00000360: e220 67bf 86f9 123f 4e8e 473e ba82 093f
00000370: 751e 7a3f 29c1 563f 64c4 1d3e 5da3 cdbe
00000380: 3f69 683f 1a83 ea3e df5c 81be 5fa3 b8bd
00000390: 11e1 fb3e a8f8 fd3d 9553 e63d 5b28 993e
000003a0: fb34 d33e cbe6 353e 3580 9ebe c165 3d3f
000003b0: 1bc8 17bd 4145 da3e c419 263f 9e06 56bf
000003c0: e8eb e9bd 282a 693f 0100 cabe f9c7 ad3e
000003d0: d54a 1b3f 87a4 f73e cbe9 b03e 3196 6a3e
000003e0: 3435 203f 8385 5ebe 054a 7fbe cbda 41bf
000003f0: 2db1 5cbe b808 183e cb80 ac3f d9ba a0bf
0.44425055 0.3029613 0.36311013 0.24304467 0.6887603 0.44884226 -0.06942088 0.42014593
0.07469267 0.7718083 -0.7773019 0.86180305 0.68547577 -0.21389173 0.1110746 -0.25275084
0.30618057 0.47760013 -0.31851125 -0.09097057 0.37068322 -0.19279091 0.044670906 -0.23019369
-0.051074043 0.27309996 0.42646956 0.2892953 -0.49396694 -0.16342708 -0.30267382 -0.70124096
0.10350309 0.7259993 -0.41382587 -0.24963877 0.46245605 -0.08307249 -0.3863628 -0.59006214
-0.38758752 -0.17496948 0.095697455 0.37458977 1.1865937 0.5498484 0.41243753 -0.21760955
0.35832897 0.023901802 0.959806 -0.44568124 -0.05276332 0.4209977 0.57321715 0.4581955
0.38380384 0.25347057 0.7735755 0.27793336 0.3880798 -0.75770926 0.85906744 -0.26695803
-0.38880473 -0.6456805 -0.23628046 -0.3237251 0.37149897 0.44049713 0.14004873 -0.51786697
-0.48688728 0.26389053 -0.08961582 0.12620896 0.12530202 0.14586674 0.7766699 0.20963953
0.39792547 0.16080473 -0.22012953 0.39223924 -0.11087976 0.58923286 0.618994 -0.04420146
-0.105387904 0.5371686 0.3056007 0.858565 -0.17565963 -0.56818247 0.0575459 0.2753861
0.5422846 -0.26817775 0.5414465 0.5985415 0.19040032 0.122311294 0.05766495 0.20725587
-0.31729296 0.37113893 0.34338647 -0.2096605 -0.6042142 -0.19107848 0.43908522 0.19931647
-0.2021739 0.14994995 0.5105142 -0.4147957 -0.030005168 0.57380384 0.3512719 0.8405789
-0.30326992 -0.39135352 -0.61404145 0.43957 0.16513027 0.2978783 -0.19832328 0.40710014
-0.13820164 -0.054483145 -0.096020415 -0.096725486 -0.115684964 -0.01199289 0.061949603 -0.082063116
0.11121704 -0.15403391 0.08954611 -0.08428464 -0.07463367 -0.11555654 -0.16139406 -0.016975775
0.06674716 0.12081063 -0.08445815 -0.012677257 0.041370645 0.02359271 -0.13582665 0.073409796
-0.05348239 -0.1051209 -0.07628789 -0.0088229515 -0.016442208 -0.09960298 -0.14801553 0.03508617
-0.2806478 0.43672252 0.37823084 -0.48012748 0.3513931 -0.048766226 1.142613 0.33850798
0.7232067 0.67067075 0.0114387795 0.5173821 0.48285025 -0.055935677 -0.26832873 0.3020196
0.20479494 0.11482176 -0.2810809 -0.60505146 -0.74118197 0.7270847 -0.0021468245 -0.33802992
0.60290134 -0.026126966 0.38808826 0.45079634 -0.8577315 0.34612346 0.09273397 0.46308434
-0.09785614 -0.18582048 0.042200208 0.07448397 -0.28716588 0.2295601 -0.3187898 0.66621035
0.47237095 0.088757746 0.40702972 -0.42495838 0.6198268 -0.56711143 -0.32563156 0.8626572
0.7548247 0.0065154 -0.50081927 0.45281923 0.7118291 -0.101093136 0.6344997 0.8754013
-0.9028455 0.5741199 0.19487879 0.537151 0.97702724 0.8388849 0.15406948 -0.401637
0.9078559 0.45803148 -0.25266168 -0.090155356 0.4919515 0.12400943 0.11246411 0.299136
0.41251358 0.17763822 -0.3095719 0.7398339 -0.03705607 0.42630962 0.64883065 -0.8360385
-0.11421949 0.9107995 -0.39453128 0.3394163 0.6066106 0.48367712 0.3455337 0.22908856
0.6258118 -0.21730618 -0.2493058 -0.75724477 -0.21551962 0.14847076 1.3476804 -1.2557021

l2.bias f4 [32]
00000000: 2eab a5bd 1d8d a83e 212d 9e3e 86ec 733e
00000010: 1ca0 8dbd 2cb3 6f3d c0e4 a83e 3604 c03e
00000020: c0f3 a03e 45ab e63e 8548 573e fb61 073e
00000030: c9f5 8e3e d0bd cfbc 9b3d efbd 7386 6b3e
00000040: 7c29 dd3d cf17 bf3d 7a74 623e 4e2b 8a3e
00000050: 7cf1 e0bd b5f0 273d 6a63 f2bd 10ca 1a3e
00000060: 86eb 853e 0522 c4bb f17b 29be 2de5 8a3e
00000070: ac87 28bd 602b 1bbe 29d4 2b3e ad66 5f3e
-0.080892906 0.3292016 0.30893806 0.23820695 -0.06915304 0.05852048 0.32987022 0.37503213
0.31435966 0.45052543 0.21023758 0.1322097 0.27921894 -0.025359064 -0.11681672 0.23000507
0.10798928 0.09330713 0.22114745 0.26986164 -0.109835595 0.04100104 -0.11835368 0.15116143
0.26156253 -0.0059855008 -0.16551186 0.27127972 -0.04114501 -0.15153265 0.16780151 0.21816511

l3.weight f4 [53, 32]
00000000: 7b19 cdbd 26a4 31be 546c 6b3e 6c84 21be
00000010: 2f4d 14be 0a9f e93d 7c8d 3dbd 2e80 c5bd
00000020: 6868 533e 4558 d4be 39f6 643e 24ba 4f3e
00000030: a1ca d7be 13bc d0bd c72a c3be f55e 213e
00000040: a252 98bf 4583 13be 1271 1ebe f8e2 12be
00000050: 0089 8dbe a794 4e3d 1a5a 79be a523 b0bd
00000060: 07b5 b0bd 1e10 d3bd 4021 d03c 2cbc 23be
00000070: ef68 70be 59b2 aa3b d0f9 9e3e 7e3d f8bd
00000080: a3d7 fdbe 9b57 abbe 7bfc 3b3e 4078 903e
00000090: e5c3 a43d 24aa 81be 7b43 b9be d04a 4ebf
000000a0: 468d 92be 752a 2abf f011 893e 0769 443d
000000b0: 050e 873e a5f4 15bf 58a1 47be 7635 2dbe
000000c0: a2e7 8f3e 48cf d8be 1c3b bd3e cc83 24bf
000000d0: 3496 7f3e d124 d23c c811 08be bcad c13d
000000e0: f992 a3bf 5e64 a4be e174 26be 1f5a 0bbd
000000f0: 7c3e 03bf 66b0 c23e 8f15 9d3e 63ff 98be
00000100: f0d0 9fbe c8ea dfbd 717e df3c 257d c6be
00000110: 6ad7 7d3c 5668 0cbf b9ed 99be 4e31 f7bb
00000120: 9f66 773e 3c10 6cbf e2c4 a53e 63e1 263e
00000130: b772 b2be 5d11 a2bf ee3a c8be 3d75 f13e
00000140: ee32 39bf c172 9c3e c2f8 c23e 91a4 2b3d
00000150: 48a4 63bf 8608 d63e 8f06 453e 96dd 9e3e
00000160: 4135 6bbe af6d fe3d 83e5 a73d 6d01 543e
00000170: bd09 d8bf 223c 09bf fb1c 9ebc fa5a 7bbf
00000180: a9de 89bf 2872 b63e 859b 5abf eed6 ad3d
00000190: 1941 013e 10fc a8bf 6994 a23e 5da2 9abf
000001a0: faeb 6d3e 620e da3d 170d eb3d 2b70 083e
000001b0: 4df4 1abf faef 983e c771 86be 3928 1ebf
000001c0: fa70 f6bd 3bd2 5bbf 4dce 30bf 3bb0 8dbf
000001d0: 5d03 443e 3fd0 4c3d 01e1 9dbf aab2 11bf
000001e0: 4b60 48bf 80d7 5dbf b717 c2bd 0bbc 15bd
000001f0: 31ac 5bbf cb40 31bf 8f2b 813e c965 9c3e
00000200: cf2a 9dbf b22d 213e 9be5 37bf a2fb a8be
00000210: 46ec 01be bcae bb3c be55 dfbd 677e 0abd
00000220: fa09 8bbf f7ab 52be df65 313e 44fd dcbd
00000230: b1e0 3b3e d1c8 723c ed27 a03e 7e97 563e
00000240: 4492 28bf 4b59 e5bf da2a c4be f669 813e
00000250: b34c 0b3d 0dd3 b2bc 5d60 a6bf 8920 04bf
00000260: 1680 34bf 0d71 01be 9cd2 42be 7a0a e03e
00000270: 68bb f63b 73c3 58bf f528 86be 4384 e13e
00000280: d39f 1bbf c77c 5abf b934 2b3e d12d b23d
00000290: f5d4 153d 280e 11be 01fb e2bd 79bc 24bf
000002a0: 4360 02be 5de7 54bf 3559 84bf abf1 8cbe
000002b0: ea8d 8e3e 6bf2 bb3e 6eb4 8ebd 5cd7 623e
000002c0: d42a 1bbe 34ff 52be e762 ac3d 807d a93e
000002d0: 504e 49be cfd4 143d 2d8b ed3d eb2c 983e
000002e0: 239c 803d 3ce2 43be 360b 0cbc 99e9 3fbf
000002f0: 49bb 4ebd 1f23 f7bc 0616 e6be 41e1 1a3e
00000300: 91f4 29bd 2b04 bc3d 6526 3abe 6dc9 f3bb
00000310: a22d 5f3c 0e32 6b3e bf63 91be 69a8 39be
00000320: 4dd4 6abf eac1 faba 0f15 663e fb5c 45be
00000330: 186c 49bd 8c11 04bf 4f9d a73d e8fe a8be
00000340: 3f19 0cc0 d03b 0fbf 2f17 e2bc 0714 e5be
00000350: 30a7 583d 9f2b b1bd 3fd8 03bd 5b0f 743d
00000360: a3de 0ec0 c3c8 4b3e 5b8a 113d a6c5 ca3c
00000370: 0a2f 003e 9d32 18bc d2f2 5dbd d08e d6bb
00000380: aacf 2fbe ecc2 953e 2568 c63e 011e afbf
00000390: 8a5b 0a3e b192 c93e 6b4f 253d 7f3e 423d
000003a0: f91f 06bf cadc 153e e1a7 513e 2477 233e
000003b0: c8a4 00be d7e9 0abf 979a 3bbf 9024 cebe
000003c0: cc30 9dbf 0af6 71bc 843b 24be 0a11 d53c
000003d0: 3a83 d6be 91e9 883d 7bbc 13c0 b17e e0be
000003e0: 57ec 76be 88b7 cfbc a8bc 83bd 80e0 89bc
000003f0: 9156 0dc0 0c0e 6ebe f46c 1dbe 33a1 163c
-0.10014626 -0.17347774 0.22990543 -0.15773171 -0.14482568 0.114072874 -0.04627751 -0.09643589
0.20645297 -0.41473594 0.22359551 0.20285851 -0.4214678 -0.10192122 -0.38118574 0.1575888
-1.1900218 -0.14405544 -0.1547282 -0.14344394 -0.27643585 0.050434735 -0.24350777 -0.08600549
-0.08628278 -0.103058085 0.02540648 -0.1598975 -0.23477529 0.005209249 0.31049967 -0.12121104
-0.4957858 -0.33465275 0.18358032 0.28216743 0.080451764 -0.2532512 -0.36184296 -0.80582905
-0.28623408 -0.66471034 0.26771498 0.047951724 0.26377884 -0.5857642 -0.19495142 -0.16914925
0.2810641 -0.42345643 0.3695916 -0.64263606 0.24959642 0.025652321 -0.13288033 0.09456965
-1.2779227 -0.32107824 -0.16255523 -0.034021493 -0.5126722 0.38025206 0.3068051 -0.29882345
-0.31214094 -0.10933453 0.027281972 -0.38767353 0.015493253 -0.54846704 -0.3006418 -0.0075437194
0.2416024 -0.9221227 0.32376772 0.16296916 -0.34853145 -1.2661549 -0.3910746 0.47159758
-0.7234334 0.305563 0.38080412 0.04190499 -0.8892255 0.41803378 0.19240783 0.31028432
-0.22969534 0.12423264 0.08198073 0.20703669 -1.6877972 -0.5360738 -0.019300928 -0.98185694
-1.0771075 0.3563397 -0.85393554 0.0848826 0.12622489 -1.3201923 0.31753853 -1.2080799
0.23234549 0.106472746 0.11477106 0.13324039 -0.60529023 0.29870588 -0.2625868 -0.61780125
-0.12033267 -0.8586766 -0.6906479 -1.1069406 0.19141908 0.050003286 -1.2334291 -0.56913245
-0.7827193 -0.8665695 -0.094771795 -0.036556285 -0.8580962 -0.6923949 0.25228545 0.30546406
-1.2278689 0.15740088 -0.71834725 -0.3300448 -0.12687787 0.022910468 -0.10905026 -0.033811953
-1.086242 -0.20573412 0.17324017 -0.10790494 0.18347432 0.014818386 0.3128046 0.20956227
-0.65848184 -1.7917875 -0.38313943 0.25276154 0.034008693 -0.021829152 -1.2998158 -0.51612145
-0.70507944 -0.12640782 -0.19025654 0.43757993 0.007529665 -0.8467323 -0.26203123 0.4404622
-0.6079075 -0.85346645 0.16719331 0.08700145 0.036580045 -0.14165556 -0.110830314 -0.64350086
-0.12732033 -0.8316553 -1.0339724 -0.27528128 0.27842647 0.36708388 -0.06968008 0.22152466
-0.15153056 -0.20605165 0.084173016 0.3310356 -0.1965878 0.036335763 0.11598811 0.2972177
0.06279781 -0.1912927 -0.008547595 -0.74965817 -0.050471578 -0.030168114 -0.44938678 0.1512499
-0.041493002 0.091804825 -0.18178709 -0.0074397833 0.01362172 0.22968313 -0.28396413 -0.1813065
-0.91730195 -0.0019131277 0.2246897 -0.1927375 -0.04917535 -0.51589274 0.08184301 -0.33006978
-2.189041 -0.5595064 -0.027598945 -0.44741842 0.052893817 -0.08650898 -0.03218865 0.059584957
-2.2323387 0.19900803 0.035532337 0.02475245 0.12517944 -0.009289411 -0.05418665 -0.0065477863
-0.17169061 0.29250276 0.3875133 -1.3681031 0.13511482 0.3936973 0.040358942 0.047422882
-0.52392536 0.14635006 0.20474197 0.15963417 -0.12562859 -0.5426306 -0.7328276 -0.4026227
-1.2280517 -0.014768133 -0.16038328 0.026009101 -0.41896993 0.06685174 -2.308379 -0.43846658
-0.24113594 -0.02535607 -0.06432468 -0.016830683 -2.2084086 -0.23247546 -0.15373594 0.009193706

l3.bias f4 [53]
00000000: 567a babc cece b7bd f60e d63d 7cfe fc3d
00000010: b6d4 613e 176e f0bc 97b2 9bbd 5375 9ebd
00000020: cf4b 123e ace1 94bc 95d1 ba3c ae66 8abd
00000030: fc3b e73d 21f6 f13d f2f5 c33d 6852 1abd
00000040: f406 0abe 1f44 993d bdb7 4c3e 4885 893e
00000050: b99c 1f3e 0e9f 453d e56d 683d aadb d0bd
00000060: 2ce6 cc3d e21c 76bd 4412 e7bd a6a0 333d
00000070: eff2 e3bd 14c6 a7bd d00a 1d3e 68ac 493d
00000080: 60d9 f83c e56b d33d c9c4 783e 2188 c1be
00000090: 22a3 36be f0f3 4d3e f41b abbc 8aa2 eb3d
000000a0: ec6b 74be 62cf 0cbe 5b5b 5a3c bb5a e13b
000000b0: 29b3 c1bd dab3 8c3d c9cb 84bd 89e5 2a3d
000000c0: c0dd 473c 5840 24be f94f 37be af85 26bd
000000d0: a9b6 9fbd
-0.022763412 -0.08974992 0.10452072 0.123532265 0.22053799 -0.02934937 -0.07602423 -0.077372216
0.14286731 -0.018174015 0.022805015 -0.06757866 0.11290738 0.118145235 0.09568395 -0.037676245
-0.13479215 0.07483696 0.19991966 0.26859498 0.15587129 0.04824739 0.05674543 -0.101981476
0.10004839 -0.06008614 -0.11282781 0.04385438 -0.1113032 -0.08192077 0.15336156 0.049236685
0.03037709 0.103233136 0.24293818 -0.3779917 -0.17835668 0.20112586 -0.020887353 0.11505611
-0.23869294 -0.13750985 0.013327445 0.006877271 -0.09458 0.068702415 -0.064841814 0.041722808
0.012198865 -0.1604017 -0.17901601 -0.040654834 -0.077985115
